HandsOnnn/model/keypoint_classifier/keypoint_classifier.tflite (tflite, 6444 bytes, 6 tensors)

sequential/dense/BiasAdd/ReadVariableOp f4 [20]
000000 a8 16 77 be 64 62 3b 3b a2 d9 df 3d ee 4a a2 be
       -0.24129736 0.002859258 0.10930182 -0.31697792
000010 c3 0c 8a be af ad 4a bd 05 aa 56 3e 1b df ec be
       -0.2696286 -0.049482044 0.20963295 -0.46263966
000020 77 2d b8 be 63 7e ed 3d 77 6e 74 3e 70 7b ed be
       -0.35972187 0.11596372 0.23870264 -0.46383238
000030 3e 5f 8d 3e 89 ba 0e 3c f0 b5 50 3a 7c e0 70 3e
       0.27611727 0.008711466 0.0007961681 0.23523134
000040 a0 62 89 be 27 b1 60 be a9 02 c0 be 92 19 ad be
       -0.26833057 -0.21942578 -0.3750203 -0.3380857

sequential/dense_2/BiasAdd/ReadVariableOp f4 [3]
000000 5f 4b b8 3e 58 58 7e be 6a d5 ba be
       0.35995004 -0.24838388 -0.36490947

sequential/dense_1/BiasAdd/ReadVariableOp f4 [10]
000000 f9 10 4d be e2 74 a5 bd 06 3b fc 3e 4c 53 96 be
       -0.20026006 -0.08078934 0.4926378 -0.29360425
000010 fc 5f d5 be 5a 47 98 3e be fc e9 3e 9f 4a 8c be
       -0.41674793 0.29741937 0.4570064 -0.2740068
000020 d2 f4 7a be 7c 49 1c 3f
       -0.24507454 0.6104963

sequential/dense/MatMul f4 [20, 42]
000000 b7 84 9d be e0 89 29 bd 49 dc 40 be 16 02 c3 3e
       -0.30765316 -0.041391253 -0.18834032 0.3808753
000010 65 4c ae 3d e0 1c ba 3e 67 5f 6d bd 2e 90 c4 3d
       0.08510665 0.36350155 -0.05795231 0.095978126
000020 0f 1b a2 be 67 9f 18 3f 43 d1 36 3e b0 b6 9f 3e
       -0.3166127 0.5961823 0.17853265 0.31194067
000030 32 91 b9 bd 79 00 73 3e 9f 69 52 bd 99 47 e4 3d
       -0.09060897 0.23730649 -0.05137026 0.11146469
000040 b4 2d 08 3e 12 0e e9 bd 5a 95 39 be cf 6f f7 3c
       0.13298684 -0.11379637 -0.1812338 0.030204682
000050 46 21 1a 3e 04 4c 7f bd 69 69 98 3e 08 69 aa 3e
       0.15051755 -0.062328354 0.29767922 0.33283257
000060 46 94 0c 3e ee 45 7a 3e 84 aa bc bd 33 c8 cf bd
       0.13728437 0.24440739 -0.09212211 -0.10145607
000070 99 f5 88 bd 80 ae fb 3e 88 a0 3c be a2 ea 2f 3d
       -0.06687469 0.4915657 -0.18420613 0.042948373
000080 de 17 99 3d fe 5d df 3e 33 ad 46 be 08 0b c3 3e
       0.074752554 0.43626398 -0.19402008 0.38094354
000090 32 dd 69 be b3 26 a2 3e 4f 88 8a 3d 90 07 3a 3e
       -0.22838286 0.3167015 0.0676428 0.18166947
0000a0 6d 39 88 be 43 3e 1d 3e e8 b8 01 be 63 0e 9e be
       -0.26606312 0.15355782 -0.12668192 -0.3087035
0000b0 56 0e 4b 3d c2 8d 41 bf f0 ea ba 3c 8a b0 1d bd
       0.04957422 -0.7560693 0.022817105 -0.03849844
0000c0 30 85 ac 3e ad d9 07 bf da 51 f9 3d 10 cd c6 be
       0.33695364 -0.5306652 0.12173815 -0.38828325
0000d0 48 f3 2d 3e e1 40 c8 be e4 87 88 3e 6b 51 0a be
       0.16987336 -0.39112 0.26666176 -0.13507621
0000e0 f2 6c 6a bd 7e e7 ba bc 8f 25 60 be 46 71 93 bd
       -0.057232805 -0.022815462 -0.21889327 -0.071993396
0000f0 42 0b 12 3f e0 c8 69 be 1c 5c 1b bd f7 31 a0 3d
       0.5704843 -0.22830534 -0.03792964 0.0782203
000100 51 ff 08 3e c2 ae 08 3e ae 92 bb bc c0 80 14 bd
       0.13378645 0.13347915 -0.02289709 -0.036255598
000110 8f b8 c7 3e 2d e5 4b be 5d 18 ca 3e 00 5e 9e bd
       0.39007995 -0.19911642 0.39471713 -0.07732773
000120 8e c2 bf bd b3 09 55 3e 3d 65 ea bd 73 d6 63 3e
       -0.0936328 0.20804481 -0.11445091 0.22249775
000130 c9 8a 17 3f 49 61 ad 3e bd 2b 85 3e 73 97 39 3e
       0.59196144 0.33863285 0.26009932 0.1812418
000140 0c 2e 39 3e 21 49 09 3f 73 5f 2d bd c0 43 fc 3e
       0.18083972 0.5362721 -0.042327356 0.4927044
000150 58 78 6a 3d c0 50 f1 bc 22 d2 83 be 87 70 ed 3e
       0.057243675 -0.02945745 -0.25746256 0.46374914
000160 29 61 10 3d bf c4 94 3e e5 21 8b bd 01 8a bc 3e
       0.03524891 0.29056355 -0.06793574 0.3682404
000170 ef 93 cc bd 3e bd 6f 3e 94 91 66 bd 49 ac a9 3d
       -0.099891536 0.23412034 -0.056291178 0.08284814
000180 5f 89 04 3e ca 68 30 3d 3d c4 db bd 93 c3 96 3b
       0.12943028 0.043068685 -0.10730789 0.004600951
000190 21 17 aa 3d 77 90 c9 be ba 0c 65 bd c6 aa 9d 3e
       0.08305193 -0.3936803 -0.05592034 0.30794352
0001a0 36 62 a9 bc b1 84 e1 3d 91 09 b4 3e 57 db 02 be
       -0.020676713 0.11011637 0.3516355 -0.12778984
0001b0 67 01 c8 3e 25 23 09 bd a8 a8 27 3d ed d3 87 3e
       0.3906357 -0.033480782 0.040932328 0.26528874
0001c0 67 bb dd bd 1e 28 4a 3c ab 73 48 3e a5 8a 73 be
       -0.1082676 0.012338666 0.19575374 -0.23783357
0001d0 ef 1c 09 bd 92 db 86 be 93 b7 60 be ab f4 82 3d
       -0.03347486 -0.26339394 -0.21945028 0.06394323
0001e0 6c 04 d2 bd c7 2f 51 3e c3 ef c5 bd d2 8c b5 be
       -0.1025475 0.20428382 -0.096648715 -0.35459
0001f0 bc cc 25 be 31 b2 da be ec 01 fa bd c0 58 7d 3e
       -0.16191381 -0.42714074 -0.12207398 0.24740887
000200 b7 b0 96 3e 38 76 15 bf 08 a2 13 be 96 15 04 bf
       0.29431698 -0.5838351 -0.14417279 -0.5159544
000210 af 73 1a be b7 27 d0 bd 25 48 3c 3e bc bf b2 be
       -0.15083192 -0.10163825 0.18386896 -0.34911907
000220 65 ee ca 3e 72 5a 3e be 5e 56 2d be 09 f6 8f be
       0.39635006 -0.1858919 -0.16927478 -0.28117397
000230 2f 36 af bc d0 0f e6 bc 0e 0b 5a bd ba 69 6e 3e
       -0.021388141 -0.028083712 -0.0532332 0.23282519
000240 3c a0 5a 3e 67 59 78 be 3c 10 75 bd ac 6a a1 bc
       0.21350187 -0.24252854 -0.059829935 -0.019704185
000250 fa ab 06 be 82 f0 65 3e 8d 88 26 be bc 08 f7 3d
       -0.13151541 0.22455028 -0.16263027 0.12062213
000260 d1 cd a7 3e 8c 27 86 be 36 f4 23 be 5d 3e 2d 3d
       0.32774213 -0.26202047 -0.16011128 0.042295802
000270 f6 6e a1 bd 85 58 4c bc 71 b2 ad bd 46 5d 3d be
       -0.07882492 -0.012472277 -0.084813006 -0.18492612
000280 b4 e6 b5 3e 26 80 94 be ef d8 85 be ce 11 d5 bc
       0.35527575 -0.2900402 -0.2614207 -0.026009466
000290 2d e2 d5 3d 6c 54 c9 be 93 61 2a 3e 37 40 e9 be
       0.1044353 -0.3932222 0.16638784 -0.45556805
0002a0 58 ae 6e 3d f0 9c 97 bd ca 57 0a 3e de 28 e8 3c
       0.058271736 -0.0740298 0.13510051 0.0283398
0002b0 52 42 02 be 16 37 0d 3e e9 6c 23 be 07 0e c6 3e
       -0.12720612 0.13790545 -0.15959515 0.38682577
0002c0 e1 88 c0 bc ab 7f 1e 3f f7 25 6d bd 0a 08 b5 bd
       -0.023502769 0.61913556 -0.057897534 -0.08839424
0002d0 37 d7 ef bd 91 69 95 3e 3f f8 e6 bc e7 e8 c2 3e
       -0.11710971 0.29182103 -0.028194545 0.38068315
0002e0 7f 3b 3f 3e 17 6c 9f 3d f4 db 07 3e 7c d7 d8 3c
       0.1867504 0.077842884 0.13267499 0.026469938
0002f0 e4 10 a7 bd b5 5e d2 3e f2 a0 79 3e 72 c8 ac 3e
       -0.081575185 0.4108788 0.24377802 0.33746678
000300 3f a9 ff 3d fd 15 aa 3e 31 f1 44 be e3 6f f5 3e
       0.12483453 0.332199 -0.19232632 0.47936925
000310 b1 51 fd 3d 40 86 0b 3e 07 d9 48 be d7 c5 e2 3e
       0.12369097 0.13625431 -0.1961404 0.44291565
000320 c1 0e 22 bd 44 a7 dd 3e 1c ed 7b be 38 3d 7d bd
       -0.03956485 0.43291676 -0.24602169 -0.06182596
000330 38 5d 54 be e9 4a b5 3e f8 0c ec 3b 68 78 59 3d
       -0.20738685 0.35408714 0.0072036944 0.053093344
000340 d1 11 11 be 21 e7 9a bc 58 31 49 bd 28 aa 61 3e
       -0.14166953 -0.018909039 -0.049119323 0.22037566
000350 36 18 bc be a5 9a 63 be bf 63 c2 ba d8 8c 1c be
       -0.3673722 -0.22226961 -0.0014830752 -0.15288103
000360 87 6c 9b be bf fc ca be 32 6b f4 bd d7 30 55 be
       -0.30356237 -0.39645955 -0.119345084 -0.20819412
000370 4e 75 08 bf eb 19 ee bd c3 d8 78 be 84 e8 ae 3e
       -0.5330399 -0.11626037 -0.24301438 0.3416177
000380 bc 27 7b be 3f a2 be 3e 26 eb 4f be 5d 84 d9 3c
       -0.24526876 0.3723316 -0.20304546 0.026552374
000390 36 4c 88 be 4f 98 00 3e f7 a7 1e be 4c 26 94 bd
       -0.26620644 0.12558101 -0.15493761 -0.07233867
0003a0 75 1a 6d 3c b9 5e eb 3d 7c 62 85 be 46 d5 be 3e
       0.01447164 0.11492676 -0.260517 0.3727209
0003b0 21 6a a5 be 71 23 3a bd d6 1c a6 bc b6 ee 05 3d
       -0.32307532 -0.045443956 -0.020277422 0.032698356
0003c0 17 8c 08 3e 13 fa 22 3e 64 38 6f 3e 11 93 9c 3e
       0.1333469 0.15915708 0.23361355 0.30580953
0003d0 7b 7c 8a 3d d2 8e fb bd 6a 38 1b bf 13 8f b9 bd
       0.06762024 -0.122831 -0.60632956 -0.09060492
0003e0 0f 01 01 bf ed 86 d7 3c 52 6a 30 be 85 39 99 3e
       -0.5039224 0.026309455 -0.17228058 0.29926696
0003f0 2e a4 88 3e 42 21 8c bd d1 26 48 3e ec 12 cc 3e
       0.2668776 -0.06842281 0.19546057 0.39858186

sequential/dense_1/MatMul f4 [10, 20]
000000 de d4 94 3e 70 14 00 3e d8 47 8c 3e 68 31 fb bc
       0.29068655 0.12507796 0.27398562 -0.030663207
000010 2b 82 51 3e 54 7f 3b 3d e8 04 f9 3c 1e cf 95 3e
       0.20459811 0.045775726 0.030397847 0.2925958
000020 75 64 80 be 44 2b 86 be 35 a6 f4 3d 02 60 1c 3e
       -0.25076643 -0.26204884 0.11945764 0.15270999
000030 36 f4 e4 3e b9 62 22 3e ea 56 fb be ae 4a 94 3d
       0.44717568 0.15857972 -0.49089748 0.072408065
000040 73 5d c2 be 5b 9e 2f 3e 39 9d 3a 3c 9d d1 86 3d
       -0.3796192 0.17150252 0.011390024 0.06582949
000050 61 bf c1 be 6c c5 7f be 92 62 c1 3b 5f d0 a5 3e
       -0.37841323 -0.24977654 0.005901643 0.32385537
000060 ee bb dc be 9a 34 81 bd 53 a0 9c be 1b c3 13 3f
       -0.4311213 -0.06308861 -0.30591068 0.5771958
000070 bc ae fe be 8c d1 c3 3e 7e 35 08 be 03 03 0c 3f
       -0.49742687 0.3824581 -0.13301656 0.54692096
000080 3f 70 90 3e 38 fb e3 be 70 cf ff 3e be 14 fc bd
       0.28210637 -0.44527602 0.4996295 -0.12308644
000090 57 e7 85 be 84 37 dc bd 62 6e b0 be e7 bd 1f 3f
       -0.2615306 -0.10752776 -0.34459215 0.62399143
0000a0 48 3e cd 3d 54 10 10 3f 69 ff 86 3d 99 75 89 3c
       0.10021645 0.56274915 0.06591684 0.016779708
0000b0 84 ef 3e bd 65 2d 05 3f a4 7e 34 3f c1 4b 31 bf
       -0.04661514 0.5202239 0.7050574 -0.69256216
0000c0 36 2d 3f be 7f be 6c 3e 5e d8 54 3f 12 65 9f be
       -0.1866959 0.23119543 0.8314265 -0.31131798
0000d0 44 19 3b 3e c0 54 1f 3f 00 ec e1 3d 1a 88 44 3f
       0.18271357 0.62238693 0.110313416 0.76770175
0000e0 57 c2 b0 be 40 47 a3 3e 5e df f7 bd db fe 18 bf
       -0.3452327 0.31890297 -0.12103151 -0.5976388
0000f0 16 b0 7a 3e 2c 9f 20 bf b5 14 d6 3d 54 70 70 3c
       0.24481234 -0.62742877 0.10453168 0.014675219
000100 c8 04 ee 3e 19 2f 68 3e ba d6 d4 3d bc 53 45 3f
       0.46488023 0.22674216 0.10392518 0.77080894
000110 2e d5 8b 3e fe 16 71 3e 48 91 42 3e 4d c9 88 3e
       0.2731108 0.23543927 0.19000733 0.2671608
000120 e6 d7 16 be ab 76 1b 3f c0 5d dc 3d bd 58 d6 bd
       -0.14730796 0.6072795 0.10760069 -0.10466144
000130 95 13 06 3f d0 72 e4 3e 50 e8 5a 3e 80 ee ab 3e
       0.5237363 0.44618845 0.21377683 0.335804
000140 31 90 1d 3f 89 54 27 3f 6f fc 0a bf dc fa 00 3f
       0.61548144 0.65363365 -0.54291433 0.5038278
000150 a8 07 fa bc f5 84 0d 3e f7 c8 87 3d fa fa 66 3e
       -0.030521229 0.1382025 0.06630128 0.22556677
000160 f2 11 36 3f b6 a1 69 be 0a 3d a7 be 67 4d 92 3e
       0.7112113 -0.22815594 -0.32663757 0.28574678
000170 97 04 cb be e7 dc e7 3e 68 fb d4 be ef c4 7c be
       -0.3965194 0.45285723 -0.41598058 -0.24684499
000180 95 66 8c be 96 6c 16 3e 87 ab a5 3e 9f 69 99 3e
       -0.27422014 0.1468986 0.32357427 0.29963395
000190 a5 49 ed 3e 20 a0 8b be 8e fc a2 be d9 6a af 3e
       0.4634525 -0.27270603 -0.3183331 0.34261206
0001a0 f5 60 91 3b dd b0 0f 3f 86 ce ff 3e d7 5d 94 be
       0.004436607 0.56129247 0.49962252 -0.28977844
0001b0 f5 d2 f6 3e 6e 31 b1 3e fd aa c6 ba 25 f7 24 3e
       0.48207822 0.34608024 -0.001515716 0.16109903
0001c0 1f b8 81 3d d8 7a c0 3e 3e 20 9e be 3e 20 44 be
       0.063339464 0.37593722 -0.30883974 -0.19152924
0001d0 f2 38 b6 3e 9e 40 14 3e 74 bf 31 3e b9 4f d0 be
       0.3559032 0.14477775 0.1735819 -0.40685824
0001e0 e6 aa c7 be ff 15 4e bd dc f0 90 3e a4 61 de 3c
       -0.38997573 -0.050313946 0.2830876 0.027146168
0001f0 84 3d 32 be d4 5b 77 bc 5b b6 d8 3e 34 6b 14 be
       -0.17406279 -0.015097577 0.42326626 -0.1449402
000200 69 88 b5 be 92 3b 62 3e b3 2e 05 3e 6b c6 19 3e
       -0.35455635 0.22093037 0.13006096 0.15017097
000210 7e f1 00 3f d5 b5 f7 bc 79 f8 00 3d b7 bf 90 3d
       0.5036849 -0.030238071 0.031486962 0.07067817
000220 c2 1e 5e be 04 0d 6c be 46 d3 11 bf 78 11 5c 3e
       -0.2169142 -0.2305184 -0.56963 0.21491039
000230 3a 38 03 3f 16 26 4b be 61 00 25 3e ca 08 d3 3e
       0.5125767 -0.19838747 0.16113426 0.41217643
000240 73 6d 0c 3f d1 94 82 3e c9 ad b5 3d c9 6f 06 3f
       0.54854506 0.25504163 0.088710375 0.5251432
000250 5d 26 93 3e 80 7c 84 3e dd fa f2 3d ca 58 2e 3f
       0.28740206 0.25876236 0.118642546 0.6810423
000260 7b 44 16 be 34 e7 aa be 6d 30 f7 3e 97 29 4a be
       -0.1467456 -0.3337952 0.48279133 -0.19742428
000270 60 c9 d6 3e 75 d5 25 3f 89 b1 fb 3d b1 88 bf 3e
       0.41950512 0.64778835 0.122897215 0.37408975
000280 77 5f dc 3e 64 42 9a be c6 7e 72 3d 1b 67 f8 bd
       0.43041584 -0.30128777 0.05920293 -0.12129041
000290 73 d6 67 3e f9 1d ab 3e 06 0e 86 3e c1 f4 22 3f
       0.226404 0.33421305 0.26182574 0.63654715
0002a0 04 62 c9 3e f0 7c 3c 3e 1a 35 88 3e dc b9 00 bd
       0.39332592 0.18407035 0.26603013 -0.03142725
0002b0 a5 ac 02 bd 8d 71 b7 3e 59 8f db 3c 56 47 11 be
       -0.031902928 0.3582882 0.026801752 -0.14187369
0002c0 01 ef 04 3f d5 72 44 3f 9b 20 c2 3e 03 80 ac 3e
       0.5192719 0.7673772 0.379155 0.33691415
0002d0 88 77 e8 be 8a e1 34 3d 45 5d 40 3f 29 a1 97 3e
       -0.45403695 0.044160403 0.7514232 0.29615143
0002e0 1e ac c2 be 44 22 73 3e af a7 04 3f 1f 74 70 bd
       -0.3802194 0.2374354 0.51818365 -0.05870449
0002f0 48 2a ca be 3c bb 05 3e cc 7f cb 3d fd 73 9d bd
       -0.39485383 0.13059705 0.09936485 -0.07688139
000300 68 61 c4 3e bf 07 81 bd af dd 1b 3f 4e 1c 2b be
       0.38355565 -0.063003056 0.6088514 -0.16710016
000310 d6 5a 64 be c5 2d 10 bf 1b 61 af be 51 83 7e be
       -0.22300276 -0.5631984 -0.34253773 -0.2485478

sequential/dense_2/MatMul f4 [3, 10]
000000 a7 d0 94 be b3 b0 5d bf b8 af 7b 3f 45 d5 42 be
       -0.2906544 -0.86597747 0.98315 -0.19026668
000010 3a ba 83 bf 49 0a c9 3e 3e b2 4f be 18 1b 29 bf
       -1.0291207 0.3926566 -0.20282838 -0.66056967
000020 09 89 32 bf 98 e4 53 3e 26 fe 85 3e cf 73 82 3f
       -0.6974035 0.2069267 0.26170462 1.0191592
000030 e1 23 60 bf bf de 26 3e df 9f 45 bf 45 6e 34 bf
       -0.87554747 0.16295908 -0.7719707 -0.7048076
000040 a3 7f fc 3b 5c 65 c0 bd dc e1 1d bf d3 9a f4 3e
       0.007705645 -0.09394333 -0.6167276 0.47774372
000050 eb e8 c0 bd 0a 33 8c be 82 f7 4a 3e 22 6c 4f 3f
       -0.094194256 -0.2738269 0.19820979 0.8102437
000060 aa 5c 27 3f ab 48 9c 3e 88 88 7b bf c1 c8 fb 3e
       0.6537577 0.3052419 -0.98255205 0.491766
000070 48 d4 c5 3e 2b 58 7a bf
       0.3863852 -0.97790784
